part2-pytorch/checkpoints/mymodel.pth (torch, 303416 bytes, 10 tensors)

conv1.weight f4 [32, 3, 6, 6]
000000 83 57 ed 3d 28 d4 f8 bb 2a 1f 84 3d 5b ef 5a bd
       0.11588957 -0.0075936504 0.064512566 -0.053450923
000010 ed 0f c7 bd 5b ab f9 bd db 57 ab 3d 5d 98 ae 3d
       -0.097198345 -0.121908866 0.083663665 0.08525155
000020 65 dc 35 bd 44 14 1c bc da 24 ec bd 3b 73 e0 bd
       -0.044399638 -0.009526316 -0.115304664 -0.109594785
000030 1c 3d 00 3e 24 8b 83 bb 00 86 13 bd 66 91 db bd
       0.12523311 -0.0040143896 -0.036016464 -0.10721092
000040 c3 ff b0 bd 95 34 e9 bc e4 d3 a8 3d 4c 00 92 3d
       -0.08642533 -0.028467456 0.0824354 0.07128963
000050 7e 87 05 be f2 9f 23 be 37 12 0a be 34 89 f4 3b
       -0.13039967 -0.15978983 -0.13483511 0.007462645
000060 53 99 86 bc d0 05 09 be bc d7 bd bd eb e2 b4 bd
       -0.016430533 -0.13381124 -0.09269664 -0.08832344
000070 32 fa d7 bc ad df b2 3d e2 19 bd bc db 63 17 be
       -0.02636442 0.08734069 -0.023083631 -0.14784186
000080 e3 9d 60 bd a7 b1 bd bb 6b b8 f1 3c f4 22 36 bc
       -0.054838073 -0.005789 0.029506883 -0.011116732
000090 01 2c 79 3d 43 23 85 3d cd 1e 40 3c 05 d0 da bc
       0.06083298 0.06500866 0.0117260935 -0.02671052
0000a0 e1 ec 72 3d a3 34 ad bd 80 54 bf 3b 24 6b 04 bd
       0.059307937 -0.08457305 0.0058389306 -0.03232874
0000b0 0f c9 80 3c 8e 8e 00 3d 94 20 d2 bc 28 af 06 bd
       0.015720872 0.03138595 -0.0256503 -0.032881886
0000c0 8e cd ba 3d 4e a7 a8 3d 5a ff c7 3c 44 60 6d bc
       0.09121238 0.08235036 0.024413753 -0.014488284
0000d0 a6 79 df bd 14 7a ee bc a5 66 7a 3d d0 a2 cf 3c
       -0.109118745 -0.029110946 0.061133046 0.02534619
0000e0 ac 7c 87 bd d1 85 66 bd 36 16 dc bd 3d bb 4a 3d
       -0.06615576 -0.05627996 -0.10746424 0.04949497
0000f0 8b e9 16 3d ee b6 22 3b 8c 9e 04 be 85 e4 3c bd
       0.036843818 0.0024828273 -0.12951106 -0.04611637
000100 42 ea 71 bd ae da e8 3d d8 f9 e7 bd 99 d4 6c bd
       -0.059061296 0.11369835 -0.11326951 -0.057819936
000110 d9 58 86 bd 6d 67 3c bc f4 75 eb 3c 39 7b f3 3d
       -0.06559915 -0.011499268 0.028742768 0.11888737
000120 e0 df c7 bd 88 f5 07 bd 2a a9 d2 bc a9 3b dd 3c
       -0.09759498 -0.03319314 -0.02571543 0.027005987
000130 89 9a a5 3a a6 3e 33 3d 8d c6 98 bd 5a 6f a4 bd
       0.0012634556 0.043760918 -0.074597456 -0.08029051
000140 d2 85 32 bd db af 57 3c 82 84 97 3d fa e9 2e 3d
       -0.043584652 0.013164486 0.07398321 0.042703606
000150 8d fe 34 bc 78 72 b5 3b 0a bd 7d 3d d2 e2 d9 3c
       -0.011047018 0.0055373274 0.06194786 0.026597414
000160 b6 42 c5 bc 21 bd af 3b 21 d0 4d bc f0 a3 ac bd
       -0.024079662 0.005363122 -0.012561829 -0.08429706
000170 a8 2c ea bd f1 08 9d bd 08 7d 31 3d fd f7 33 3e
       -0.11434299 -0.07667721 0.04333213 0.17575069
000180 04 31 43 bb 9f 8e ca 3c 9d f5 8a bd 1d 09 90 bd
       -0.0029783854 0.02472621 -0.06785128 -0.07032988
000190 9c 3f 34 3e be d5 02 3e 57 7a f8 bd 63 9d dd bd
       0.1760239 0.12776849 -0.121327095 -0.10821035
0001a0 f5 3f a5 bd cc db 48 3e 4f 3a 5f 3e a9 99 3c 3e
       -0.080688395 0.19615096 0.21799587 0.18417992
0001b0 ed 09 c6 bd c7 10 b4 bd d3 8f 41 be 4a 6e c4 bd
       -0.09669862 -0.087922625 -0.18902521 -0.095913485
0001c0 13 34 33 be ae a0 54 be d5 c1 1e be 5c e3 1a be
       -0.17500333 -0.2076442 -0.15503629 -0.15125793
0001d0 ba c1 06 be 64 09 16 be 4a ae 66 be 6e 8f 68 be
       -0.13159838 -0.1465202 -0.22527424 -0.22710964
0001e0 45 24 f1 bc 64 15 2b be cb 14 59 be 9c bf 1a be
       -0.02943624 -0.16707379 -0.21199338 -0.15112156
0001f0 b1 b5 01 be b2 0b 20 bd 31 68 89 3c bb a5 b7 3d
       -0.12666966 -0.039073654 0.016773315 0.089671575
000200 32 a2 a2 3d 22 4c 1d 3e e5 f9 e7 3d dd da 11 3e
       0.079410926 0.15361074 0.113269605 0.14243646
000210 4c b4 97 3d c9 db 42 3e e6 72 5c 3e df 82 7e 3e
       0.07407436 0.19029154 0.21528205 0.24854611
000220 a2 d5 7c 3e 01 f4 6d 3e b2 79 a6 3d 00 a0 41 3e
       0.2469087 0.23237611 0.0812868 0.18908691
000230 79 d3 65 3e 95 bb 43 3e d5 98 15 3e 5a fb 18 3e
       0.22443952 0.19114526 0.14609082 0.14939633
000240 ac 24 d3 bc ae 01 cb 3d 1b 05 bd bc a3 45 8d bc
       -0.025774322 0.0991243 -0.023073724 -0.01724512
000250 3c 8d 0c bc 31 1b 8b 3c cd 5b 04 3d 4b 46 b4 3d
       -0.008578595 0.01698074 0.03231411 0.0880247
000260 79 19 9e 3c bf 5e a4 bc 20 89 9b 3d 1e 64 8f bb
       0.019299256 -0.02006471 0.07594514 -0.0043759486
000270 d3 06 94 bc 04 27 c3 bd d7 72 81 bd 3f 36 6d bc
       -0.01806966 -0.09528926 -0.06320732 -0.014478265
000280 1b a2 3e 3c 3c 4d 85 bd 6b 19 ac bd 07 01 83 3d
       0.011635329 -0.06508872 -0.084032856 0.0639668
000290 52 24 cd 3d c0 0c 09 3d 90 40 0a 3d 03 1f 32 bc
       0.10016693 0.033459425 0.033752978 -0.010871652
0002a0 e9 2a c2 3c c4 52 6f bc 00 af 96 bd a1 b5 a5 3d
       0.023702102 -0.014607135 -0.07357597 0.080912836
0002b0 a0 62 7a bd f1 1c 4c bd 07 23 1e bd 68 ca a9 bd
       -0.061129212 -0.04983229 -0.038607623 -0.08290559
0002c0 c1 64 11 bd 94 df 80 bd 06 80 6d bd b1 c7 89 3c
       -0.035496477 -0.06292644 -0.05798342 0.016818853
0002d0 e3 4b 0f 3e 4e 9e 96 3d 58 c2 f8 3d aa bd 29 3e
       0.13993792 0.07354413 0.12146443 0.16576257
0002e0 15 6a e4 3d a2 2c 4f 3e c1 37 77 3d a9 07 2e 3e
       0.11153046 0.2023187 0.060355905 0.1699511
0002f0 9b 65 1c 3e 5d 31 dd 3d 14 ea b3 3d 19 2c 3f 3e
       0.15273134 0.10800431 0.08784881 0.18669166
000300 44 4b f6 bc e5 99 42 3d 39 b3 62 3c a9 9d e6 3d
       -0.030065186 0.047510047 0.013836675 0.1126054
000310 48 b0 e8 3c 65 a3 0b 3d 08 02 0f bd 73 c8 2e 3d
       0.02840437 0.034091372 -0.034914047 0.042671632
000320 d9 9d 0d 3c a2 7f 4f 3c ec 8a 9b 39 82 a8 a7 bd
       0.008643591 0.012664707 0.0002966741 -0.08186437
000330 49 fa 91 bc ed 7d 0a be 63 9c a2 bd e6 3c 2e be
       -0.01781954 -0.135246 -0.07939985 -0.17015418
000340 32 0c ca bd 2d 62 07 be c4 f8 b6 bd ae 54 0f be
       -0.09865607 -0.13221045 -0.08934167 -0.13997146
000350 5a 6a 6b be 54 44 24 be 9a 20 35 be ca 2a b9 bd
       -0.22989789 -0.1604169 -0.17688218 -0.090413645
000360 c0 04 f8 3c 46 a7 de 3d ed 93 9f 3c 16 bb 20 3d
       0.030275702 0.108717486 0.019479716 0.03924092
000370 9f b0 1d 3e 51 41 ae bc 81 87 62 bc a5 5d f2 3d
       0.15399407 -0.02127138 -0.013826252 0.118342675
000380 3a 98 1f 3d 6c 25 02 3e c1 5e e5 3d b5 b6 b5 3d
       0.038963534 0.12709588 0.111997135 0.08872739
000390 5b 33 39 3d ed da ee 3b e4 48 d5 3d c2 bf 9d 3c
       0.045214992 0.0072892816 0.104142934 0.019256476
0003a0 ef e2 4f 3d ff 26 06 39 1c 10 06 3e 2c 61 ba 3d
       0.05075353 0.00012793763 0.13092083 0.09100565
0003b0 db 4a d5 3d e3 07 8d 3c bd 6d ad 3d b6 a6 af bb
       0.10414668 0.017215675 0.084681965 -0.0053604497
0003c0 e5 17 ca 3d 30 77 e1 3a c9 e7 20 3d d1 72 cb 3a
       0.09867839 0.0017201658 0.039283548 0.0015521889
0003d0 32 ae 93 b9 15 ea ab bc a5 7a 58 3c bb 5b 1c bd
       -0.0002816781 -0.020985642 0.0132128345 -0.03817342
0003e0 98 e1 a6 3d 19 e0 88 bd 8f a3 53 3d a9 46 d5 3b
       0.08148497 -0.06683368 0.051669654 0.0065086675
0003f0 c2 c8 0b be 88 43 a9 bd 76 93 53 bc 03 83 e7 bd
       -0.13650802 -0.08264834 -0.012913575 -0.113042854

conv1.bias f4 [32]
000000 d1 96 cc be ed 4a e9 be af f8 df bd 46 71 23 3d
       -0.39958814 -0.45564976 -0.109361045 0.039902948
000010 b0 b3 28 bf 30 f7 5f be 1b 47 be 3d ac d0 55 bc
       -0.6589918 -0.21871638 0.09290906 -0.0130502395
000020 ca 82 be bd 10 e5 69 be ce 48 9a be a9 99 b4 be
       -0.0930229 -0.22841287 -0.3013367 -0.35273483
000030 d6 3c c9 be 13 80 56 be 2a 41 23 3d 89 d4 54 be
       -0.39304227 -0.20947294 0.039857067 -0.207842
000040 41 e6 44 be e8 72 f8 bd 2c 7e a7 be bb f2 94 be
       -0.1922846 -0.12131292 -0.3271345 -0.2909144
000050 0a aa bc be cd 56 82 3e 62 e6 58 3d 6d 8e 84 3d
       -0.3684848 0.2545685 0.052954085 0.06472478
000060 21 7a c5 be 4f 6e c2 bd 52 40 74 be db b3 a2 be
       -0.3856974 -0.09493696 -0.23852661 -0.31777844
000070 c7 6c c0 be da 1f 92 3d 99 e9 d3 be df b0 f3 be
       -0.3758299 0.071349815 -0.41389158 -0.4759588

conv2.weight f4 [64, 32, 4, 4]
000000 57 5d e0 bd b1 8c ac bb 27 e4 9b 3c 59 b2 27 3d
       -0.10955303 -0.005265795 0.01902969 0.04094157
000010 4c e2 c3 bd 53 cc c1 bc 70 b7 81 3c 88 40 e3 3d
       -0.09564647 -0.023657 0.01583454 0.11096293
000020 5a b3 76 bd d7 de c7 bc bd 5a 00 3d 88 3e 02 3e
       -0.060229637 -0.02439825 0.031336535 0.12719166
000030 3f 71 ac bd 18 91 6e bc 4a 35 2e 3d 7d 9d ef 3d
       -0.084200375 -0.01456096 0.04253129 0.116999604
000040 cd 9c 82 bd 38 4a d9 bc 43 74 0b bb c5 3e fd bc
       -0.063775636 -0.026524648 -0.0021279014 -0.03091372
000050 a6 bf f1 bd 02 fd a0 bd 96 01 79 bd e9 75 2c bd
       -0.11804132 -0.078607574 -0.060792528 -0.042104635
000060 88 09 b5 bd 91 1e 93 bd 75 55 02 bd 16 3d 66 bd
       -0.088397086 -0.071835645 -0.03181978 -0.0562106
000070 06 8d bb bd 7d b6 ce bc a1 a9 46 bd f2 ea f2 bc
       -0.091577575 -0.025233502 -0.048501614 -0.029653046
000080 b7 40 7e bc 7a 53 e6 bc 3a e2 56 3d de e6 b7 3d
       -0.015518359 -0.028115977 0.05246184 0.08979581
000090 5b ef da bc cc 4e 8a 3c 3f 86 88 3c 49 44 c8 3c
       -0.026725462 0.016883276 0.016665576 0.024446623
0000a0 81 a1 fe bc 37 d2 1d bd bc 9f 33 3c 49 00 f7 3c
       -0.03108287 -0.038530555 0.010963377 0.030151503
0000b0 a2 dd 8a bd 81 77 f4 bc 85 90 4c 3b b7 b8 73 bc
       -0.06780554 -0.02984214 0.003121407 -0.014875582
0000c0 84 8a d2 3c bb 52 31 39 8f d4 4d 3c 1e 9d b0 bc
       0.025700815 0.00016910855 0.012562885 -0.021559294
0000d0 40 6e c9 bc e9 b2 8f 3c 6f 78 19 bc 6a 95 05 bd
       -0.024588704 0.017541366 -0.0093670925 -0.032613195
0000e0 a4 16 0b bd 9b bc 51 bc e4 7b 1f 3d b3 1d 21 3d
       -0.03395714 -0.012801315 0.03893651 0.039334964
0000f0 c1 67 39 3c a1 43 53 3d 18 f9 b7 ba 9c 7b 31 3d
       0.011316241 0.051578168 -0.0014036028 0.043330774
000100 0c 39 d5 bc a4 30 cf 3b a4 09 e0 3c 74 b4 55 3d
       -0.026028179 0.006322937 0.027348347 0.052174047
000110 c5 94 94 bd d1 1c 9a bc 1b 4a a5 bc a0 af 4d bd
       -0.07254938 -0.018812569 -0.020176938 -0.050216317
000120 9f bb 88 bd d1 ca 6b bc 2a 0b c9 bc b8 90 01 be
       -0.06676411 -0.014391617 -0.024541456 -0.12652862
000130 3d 4d 97 bd 77 5c 98 bd 0f 28 8b bd 21 62 b8 bd
       -0.07387779 -0.07439511 -0.0679475 -0.090030916
000140 bf 52 ee bd 73 34 ac bc 12 0c 22 bd f7 e8 1d bd
       -0.11636876 -0.021021103 -0.039562292 -0.03855225
000150 11 55 06 bd 7e 79 53 bd 05 39 57 bc 25 a5 15 bd
       -0.03279597 -0.051629536 -0.013136153 -0.036534447
000160 80 0d f4 bb 44 9f 42 bc fd 40 10 bd 88 d0 1b bd
       -0.0074478984 -0.011878792 -0.035218228 -0.038040668
000170 64 79 c4 bc 39 c7 ca bb b5 53 df bc 57 79 d1 bb
       -0.023983665 -0.0061883 -0.027261594 -0.0063926387
000180 03 e7 0e bd f9 c8 43 bd a7 e1 51 bd d8 a1 f1 bc
       -0.03488828 -0.047799084 -0.05124059 -0.029496118
000190 54 9d a8 bc 37 ec 96 3b da 9b 73 bc bd bb f1 bc
       -0.020582832 0.0046057957 -0.014868701 -0.029508466
0001a0 5f 60 dc 3c aa 14 1a 3c 8f 5d 5a bc a1 9a 03 bd
       0.026901422 0.009404341 -0.01332797 -0.032129887
0001b0 18 c8 07 bd 17 34 9e 3c 92 b6 8d bc 42 07 c1 3c
       -0.03314981 0.019311948 -0.01729897 0.023563031
0001c0 b6 87 25 3d 63 d9 0e bd 4b 6b 80 bd 70 52 b3 bd
       0.040412627 -0.034875285 -0.062704645 -0.08755958
0001d0 5b 51 ea bc 6f 66 40 bd f1 51 88 bd 76 91 8c bd
       -0.028603246 -0.04697269 -0.06656254 -0.06863682
0001e0 c3 6c 41 bd 78 95 81 bc 4a 8c 6c bd cc 9c 44 bd
       -0.047222864 -0.015818343 -0.057750978 -0.048001096
0001f0 74 f3 21 3d 29 31 9f bc 98 dc a9 bc 10 11 5a bc
       0.039538816 -0.019432621 -0.02073507 -0.013309732
000200 11 a0 34 bd 0c a4 43 bd 50 1e ab bc 16 42 8b bc
       -0.044097964 -0.04776387 -0.020888478 -0.016999286
000210 04 68 96 3a 7a 85 72 3c 01 81 c5 3c a2 4a 4a 3c
       0.0011475091 0.014802331 0.024109365 0.012346895
000220 19 6b b7 3c 22 de ba 3c 67 b9 4c 3c 3b 92 2d bd
       0.022389935 0.022811 0.012495375 -0.042375784
000230 3a ec 0f 3d 45 db aa 3c 02 2f 9c 3c d4 0d a9 bc
       0.035137393 0.020856509 0.019065384 -0.020636477
000240 3b 84 af bc 7e 91 81 bd 66 80 81 bd 43 e9 56 bc
       -0.021425357 -0.063265786 -0.06323318 -0.013117137
000250 5c ed f1 3c 42 c5 ad bc d5 30 a3 bd e6 6c 6b bd
       0.029532127 -0.021212224 -0.07968298 -0.0574769
000260 b7 ae 27 3c 20 81 39 3a 8c 43 82 bd 76 cb a2 bd
       0.010234526 0.0007076431 -0.0636054 -0.07948963
000270 aa b0 13 bc 81 08 93 3c 92 15 94 ba d6 8b 12 bd
       -0.009014288 0.01794839 -0.0011297932 -0.03577789
000280 d3 92 5a bd f3 3b c4 bc a1 f1 cd bc 68 9d 5f 3d
       -0.05336268 -0.023954367 -0.025139632 0.054593474
000290 21 e4 4c bd c5 22 93 bc ff fb a2 3a 1c 25 ab 3b
       -0.05002225 -0.017960915 0.001243472 0.0052229296
0002a0 b4 7b 78 3c 87 aa a1 bc 59 f9 89 3c b9 5f c3 bc
       0.015166212 -0.019734634 0.016842531 -0.023849355
0002b0 0a 49 0b 3b 12 4a 0f bd de 9e 67 bb 87 de 5d bd
       0.0021253251 -0.03498275 -0.0035342495 -0.054167297
0002c0 3f b6 d0 bd 2d 09 a7 bd b0 e5 ca 3c bc 55 e6 bb
       -0.10191011 -0.08156047 0.024767727 -0.0070292633
0002d0 cd a8 2c bd 17 10 8d bd e3 ff dc bc 6e 3a a1 3c
       -0.04215317 -0.068878345 -0.026977485 0.019681182
0002e0 59 24 6a bd 68 95 f3 bc b9 1d 73 bc 8d 2d 89 38
       -0.05716357 -0.029734328 -0.014838629 6.5411536e-05
0002f0 6d 2c b7 3a ec 46 a8 bc 13 c3 75 3c 89 9f 1e bd
       0.0013975032 -0.02054163 0.015000123 -0.038726363
000300 84 53 11 bd 93 7e 91 bc d9 36 61 bd f2 09 17 bd
       -0.035480037 -0.01776055 -0.054983947 -0.03687472
000310 51 c0 17 bd 36 44 63 3b 07 46 86 bd a4 36 16 bd
       -0.03704864 0.0034678108 -0.065563254 -0.036673203
000320 a7 c5 1c bd 24 8d 38 3a 06 57 40 bc 1b f7 05 bd
       -0.038274433 0.00070400746 -0.011739498 -0.03270636
000330 87 e3 52 bc fd 0e 19 bc a7 ff 26 bd b2 4b 12 bd
       -0.01287163 -0.009341952 -0.040771153 -0.03571672
000340 b8 84 1f bd b5 b7 88 bd e3 45 d4 bd b9 be b9 bd
       -0.03894493 -0.06675664 -0.10364892 -0.090695806
000350 d4 14 11 3d 6e 6a 96 bc 32 19 9d bc 19 e2 ff bd
       0.035420254 -0.018361297 -0.019177053 -0.124942966
000360 73 f9 46 3d 4a e3 1a 3d 30 e3 7f bc 58 c7 8b bd
       0.048577737 0.037814416 -0.015618131 -0.06825131
000370 53 79 d6 3d fc 39 45 3d e1 e4 b1 3c bf 20 0d bd
       0.104723595 0.048151 0.021715583 -0.034455057
000380 a3 c8 11 3d 62 4a 3b 3c e4 8d 0b bd 96 ff 5c bd
       0.035591733 0.011431308 -0.034070864 -0.053954683
000390 f4 7c 24 3d d1 3b 51 3d 12 66 42 bd f0 0f c8 bd
       0.040158227 0.051082436 -0.047460623 -0.09768665
0003a0 e6 5b 44 3d 75 f3 da 3c e2 ad d6 bc 5d 38 e1 bc
       0.047939204 0.026727417 -0.02620596 -0.027492696
0003b0 8c d8 38 3d ca fa be 3c a5 98 8e bc bb 81 e4 bc
       0.04512839 0.023312945 -0.017406771 -0.027893892
0003c0 a6 a1 1c bd a7 e6 d7 bb 5d 18 b0 3d af 62 c5 3d
       -0.038240097 -0.006588775 0.08598397 0.09637963
0003d0 de 7a 22 bd 11 33 86 bc 04 8b 3b 3d 38 74 c9 3d
       -0.039667957 -0.016381772 0.045786873 0.0983662
0003e0 b5 5b b2 bc 34 bf 7c 3d c4 01 48 3d 43 f9 d1 3c
       -0.021772245 0.061705783 0.04882981 0.025631553
0003f0 4c bb 80 bd ec 5b 02 3d 4a 00 42 3d 4a 1d 60 3d
       -0.06285724 0.031825945 0.047363557 0.054715432

conv2.bias f4 [64]
000000 01 c3 b1 3c 97 f9 6b 3e 58 3e a3 bc ec 3b f9 bb
       0.02169943 0.2304443 -0.019927189 -0.00760602
000010 9f aa 38 bd 63 46 40 3e 68 20 ff ba 58 31 95 bb
       -0.045084592 0.1877685 -0.0019464614 -0.0045530014
000020 e9 80 ad be 53 1e c0 3d 74 5c 40 3d 0a 4d e2 bd
       -0.33887413 0.09380784 0.04696317 -0.1104985
000030 19 86 8e 3d 00 7f 4c 3d ea 96 2b be 6d 3a 22 3e
       0.06959171 0.049925804 -0.16756788 0.158426
000040 d5 ce 27 3e 0b 73 04 3e ff 72 05 be 1d bb cf bc
       0.16387494 0.1293451 -0.13032149 -0.025357777
000050 20 96 b2 bd 76 3a 3e 3d ca eb 72 3d 0e 0d 68 3d
       -0.0872004 0.04644247 0.059306897 0.056653075
000060 c6 e3 3e bc cd c0 2f bd 75 49 0e 3e 49 fa 75 3c
       -0.011650985 -0.04290848 0.13895209 0.015013286
000070 86 39 9f bd 2e 91 b9 3a 12 b1 a3 bb 1d 31 77 3c
       -0.077746436 0.0014157647 -0.0049954737 0.015087393
000080 81 21 d6 3c b2 fb 5e bd b9 f7 d5 bd 36 51 9a 3d
       0.026139023 -0.054439254 -0.1044764 0.07535021
000090 6d 74 8f bc 6f c1 e5 bc ef 51 b3 bc b7 9a 11 3e
       -0.01751157 -0.028046338 -0.021889655 0.14219175
0000a0 fe 84 0f bd 3f 07 c9 3d b5 df 88 3c c8 b0 d0 bd
       -0.03503894 0.09815835 0.016708234 -0.10189968
0000b0 3e 61 f1 bd 96 53 ff 3d 69 6c 52 bc cd 2c da 3d
       -0.117861256 0.124671146 -0.01284323 0.10653076
0000c0 a9 52 48 3d 30 36 fa 3d b5 f9 aa 3d 72 ec 77 be
       0.048906956 0.12217367 0.08348409 -0.2421129
0000d0 e2 1f 03 bd a9 d4 dc 3d d8 b9 92 bd 8b 8f d0 3a
       -0.032012828 0.10782749 -0.07164353 0.001591192
0000e0 5e 9f a3 3d ab 34 2f 3e e4 af af 3c 6f d9 03 be
       0.07989381 0.17109935 0.021446176 -0.12875913
0000f0 5d 5e 8a bd 5c 5a e1 3d eb 41 1b 3e 16 25 76 3d
       -0.067562796 0.11003563 0.15161864 0.06009396

fc1.weight f4 [120, 256]
000000 9d e7 8d bb e2 df 02 bd 7e 74 92 3d 73 87 5d 3d
       -0.004330589 -0.031951793 0.07151125 0.054084253
000010 e5 ae 19 bd a4 ae 25 3d e5 39 9d bd c0 92 21 bd
       -0.037520308 0.040449753 -0.07677058 -0.039446592
000020 1d 44 ce bc f0 f0 4b bd 1d 57 83 3d 80 1d 92 ba
       -0.025178963 -0.049790323 0.064131 -0.0011147708
000030 cf 51 33 bc f2 6f 82 3c 9e b6 9c 3b e8 23 30 bd
       -0.010944798 0.01592252 0.004782512 -0.043002993
000040 4d 29 14 bc 7a 1e a4 3d 75 e4 10 3d 46 ab d6 bc
       -0.00904305 0.080136254 0.035374124 -0.026204716
000050 20 b0 3f 3d b4 28 29 3b 4c 2a 35 3d 99 91 62 3d
       0.046798825 0.0025811614 0.04422979 0.055314634
000060 fc 97 1b 3d 83 d3 f1 bd 03 dd 6b 3d 33 8a 2a bd
       0.03798674 -0.11807921 0.05758382 -0.041635703
000070 18 58 ca bd b1 02 69 3d 24 cd 84 bd 6e b3 21 3d
       -0.09880084 0.056887332 -0.0648444 0.039477758
000080 df cc 88 3b 99 5c 80 bc b6 64 a9 bd c5 34 75 bd
       0.004174813 -0.015669154 -0.08271162 -0.059864778
000090 af 93 0c 3d 74 e3 22 bd a2 90 b7 3c 8e f6 da bc
       0.03432053 -0.039767697 0.022407833 -0.026728895
0000a0 df 7e 05 bd 55 bf 81 bd f4 02 d2 ba a2 3a 53 bd
       -0.032591697 -0.06335322 -0.0016022609 -0.05156959
0000b0 ea d3 f9 bc 55 db a1 bd 9c 89 8c bc 7e e1 ca 3c
       -0.030496556 -0.079031624 -0.017155461 0.024765726
0000c0 1e e7 21 3d bc 1b 79 3c b1 79 11 3d 9e c5 0f 3c
       0.03952705 0.015204366 0.035516445 0.008775143
0000d0 93 03 f1 3c d7 d6 6c 3d 88 61 bc 3c 98 61 5f bc
       0.02942065 0.057822075 0.022995725 -0.013634108
0000e0 82 08 35 bd 88 fc 89 3c a9 8b ea bb d3 1c 9c 3c
       -0.044197567 0.01684405 -0.007157762 0.019056713
0000f0 d7 69 42 3d 72 be 8b 3d 79 ab ac 3c 39 e2 1b 3c
       0.047464218 0.06823434 0.021077858 0.009514385
000100 9f ba 9a 3d 6a 4e 5e 3d 85 8b 68 3c f3 7f c5 3c
       0.075551264 0.054274 0.01419342 0.024108863
000110 45 45 c8 bb 38 92 07 bd 8d 06 1a bd eb cc 44 3d
       -0.006111773 -0.03309843 -0.037603904 0.048046988
000120 98 e3 f3 3c 63 e6 cc 3c 23 2d 9f bd 9d 5d f2 bc
       0.029771611 0.0250122 -0.07772281 -0.029585654
000130 28 0c 85 3c c7 b8 34 3d 2f 19 48 3d 33 95 81 3c
       0.016241148 0.04412153 0.048852142 0.015818214
000140 02 02 c6 3d de 7e 82 3d 4c c7 17 bd 68 4f 69 3d
       0.09668352 0.06371854 -0.0370553 0.056960493
000150 f9 75 7e 3d a1 28 72 3c fd 32 14 3c 55 a1 19 bd
       0.062124226 0.0147801945 0.00904536 -0.037507374
000160 5f 13 fb bc bb 82 c6 3c da 6f 49 bd b5 bb e4 bc
       -0.030648885 0.024232259 -0.049178936 -0.027921537
000170 d3 c6 d8 bb 73 4f 9b bc 4f ae 04 3c 9e 38 9b 3d
       -0.0066154986 -0.018958783 0.008098199 0.07579158
000180 e7 8b 1a bd e8 a7 ae bb 5a 08 d3 3c c4 58 3e 3c
       -0.037731078 -0.0053300746 0.025760818 0.011617843
000190 52 5c 88 3c 8e d2 5c bc fa 51 19 3d e6 30 c7 3d
       0.016645584 -0.0134779345 0.037431695 0.097261235
0001a0 70 25 a0 3c 67 14 c0 bb df 28 8e bc b0 9c a1 3c
       0.019549102 -0.005861807 -0.017353473 0.019728035
0001b0 20 cd f3 bc 82 db 3e 3b d1 2f 48 bc a2 77 df bc
       -0.029760897 0.0029122536 -0.012218432 -0.027278725
0001c0 6f 98 ba 3c 07 e1 c8 bc 14 a7 38 3c 6c 75 4b bd
       0.022777764 -0.024521364 0.011270303 -0.04967253
0001d0 b7 5d 16 bd 84 61 9c 3c e8 96 94 bc 28 d9 90 3d
       -0.036710467 0.019089468 -0.018138364 0.07072669
0001e0 e3 f0 0a 3c 4b 2f 80 bc 13 ff 2f bc 8e 9e 93 bd
       0.008480283 -0.015647551 -0.010741967 -0.07207976
0001f0 47 21 af 3d 9d 58 5a 3d 7d 88 0e 3d be 70 aa ba
       0.08551269 0.053307164 0.034798134 -0.001300357
000200 d7 cf db 3c 83 62 7e 3d bd f0 bb 3c e2 4f 6c 3b
       0.026832504 0.062105667 0.022941941 0.0036058356
000210 03 72 95 bd ca d7 d7 bd 66 d3 69 3c 4a 65 27 bc
       -0.07297137 -0.10539205 0.014271593 -0.01021702
000220 63 a4 54 3d f9 c4 40 3d 18 a6 80 3c 8f 58 b8 3d
       0.051914584 0.047062848 0.0157042 0.09001266
000230 cd c1 f0 b9 1e 0b 0d bd a2 6d 09 3c e3 5e fe bc
       -0.0004592076 -0.03443443 0.008387955 -0.031051105
000240 9d 77 5e 3c c2 3d f1 bc 8d 85 8c bd 3e b2 1e bd
       0.013578323 -0.029448394 -0.0686141 -0.038744204
000250 2b ba 0e bd 4c 44 02 3c ab 02 2d 3c 18 18 9b 3d
       -0.034845512 0.007950854 0.010559718 0.07572955
000260 0a f6 21 3d 42 aa 32 bb 19 22 43 bd 24 9a 0e bd
       0.03954128 -0.0027262126 -0.04763994 -0.03481497
000270 14 81 86 bc a8 bf b2 3d 67 19 ea bb 7c 12 8d 3b
       -0.016418971 0.08727962 -0.0071441415 0.004305182
000280 fb ab 3f 3c e0 42 df 3c 63 35 d5 bc ca 9f 9a bd
       0.011698718 0.027253568 -0.026026433 -0.075500086
000290 4e e6 1d 3d 2f f4 07 bd 9e 0e 96 bc b3 27 96 bc
       0.038549714 -0.033191856 -0.018317517 -0.018329477
0002a0 8f 2f 52 3d 77 91 31 3d 94 ae 48 3d 9d dd c0 3c
       0.051314887 0.043351617 0.048994616 0.023543173
0002b0 fa a4 fb 3c 86 f8 66 3d 57 42 90 bc 7a 4b 41 bc
       0.030718315 0.056389354 -0.017609758 -0.01179778
0002c0 16 ed c2 bb b1 42 52 3b 2b 35 10 3d 9e 6a 3d bd
       -0.005948673 0.0032083208 0.035206955 -0.046244256
0002d0 be 3f 93 bd c6 3d 52 bc 07 19 85 3c 96 b2 3d 3d
       -0.07189892 -0.012832111 0.016247286 0.04631289
0002e0 23 3a 1d 3d c3 a9 99 3d 1d e4 2c 3c d0 bc 00 bc
       0.03838552 0.075030826 0.010552433 -0.007857516
0002f0 26 32 21 bd 36 f3 72 3d a1 0d 9d 3c bc f4 a0 bc
       -0.039354466 0.059313975 0.019171538 -0.019647948
000300 b3 3a a7 bc 4c 27 1e 3d ca 6d c6 bb 69 84 4a 3c
       -0.020413732 0.038611695 -0.0060555683 0.012360671
000310 b5 98 10 bd bc d5 8a 3c be 67 4b bc e2 7e 63 3d
       -0.035301883 0.01694762 -0.012414871 0.055540927
000320 7e cb 7e bd 64 b2 6d bc 61 0c 75 3c c2 2d 53 3d
       -0.062205784 -0.014507864 0.014956565 0.05155731
000330 46 e4 d1 3b 2b 71 a2 ba 12 da af bb fa e3 3f bd
       0.006405386 -0.0012393346 -0.005366572 -0.046848275
000340 57 33 e5 3c 42 f1 ca 3c f0 57 9c 3b e7 1f 18 bd
       0.027978582 0.024773244 0.004771225 -0.0371398
000350 de c6 57 3d 71 ab 26 3d 80 38 e8 bc 6e 9a 3f 3d
       0.05267989 0.040690843 -0.028347254 0.046778135
000360 c1 c6 1c bd 58 42 d7 bc da 82 7a bd 82 e0 97 bd
       -0.038275484 -0.026276752 -0.061159946 -0.07415868
000370 f3 ad e7 3c 02 df 03 3d 7c cd 63 3d d5 d0 3b 3d
       0.028281188 0.0321951 0.055615887 0.045853455
000380 3e e5 ec bc 37 5f 99 bc c0 cd 9c bc 35 2d 89 3c
       -0.028917905 -0.01872216 -0.019141078 0.01674519
000390 5c e5 77 bc de 55 7c 3a 88 0a 9d bb 78 c2 06 bd
       -0.015130367 0.00096258323 -0.004792515 -0.032900304
0003a0 53 e3 48 bc 61 49 a5 bc e5 00 61 3c 69 28 0b bd
       -0.01226123 -0.020176591 0.013733123 -0.033974085
0003b0 40 6b cf 3a 49 99 71 bc a6 8a 37 bd ce c0 be bd
       0.001582481 -0.014746019 -0.04480996 -0.09314118
0003c0 8c c1 1e bd f0 3b a4 3c 72 26 d7 3b 15 4b 09 bd
       -0.0387588 0.020048112 0.0065658623 -0.03351887
0003d0 57 c3 a1 bc de 49 a0 bc 8c a1 cb 3c 8e b0 95 3c
       -0.019746466 -0.019566473 0.024857305 0.018272664
0003e0 7e de 56 3d 9a e9 91 3d a5 fb d3 3b f8 ef ca 3c
       0.05245828 0.07124634 0.0064692074 0.02477263
0003f0 a0 1a 30 bd 78 0c ac bc 84 58 2f 3d 06 f4 b2 3c
       -0.04299414 -0.02100204 0.042809024 0.021844875

fc1.bias f4 [120]
000000 0d 69 af 3d 40 8d 94 bc 71 35 56 3d c0 ea ab bd
       0.08564959 -0.01813376 0.05229706 -0.083943844
000010 81 a6 3b 3d 16 85 4f 3b 2d a5 0f 3d 86 46 cc ba
       0.045813087 0.0031665019 0.035069633 -0.0015584982
000020 9d 86 b8 3d 26 ab dc bc 16 a9 5b bd 59 47 00 bd
       0.090100504 -0.026937079 -0.05362805 -0.031318042
000030 0d 19 80 3c fb 22 03 bd d0 48 0b 3d 28 db ef bd
       0.015636945 -0.03201578 0.034004986 -0.117117226
000040 fb 3d 90 3d d6 37 f0 3b cd c7 15 3e a0 34 1c 3e
       0.07043072 0.007330875 0.14626999 0.1525445
000050 39 2c a0 bc 6c 35 a6 3d a3 d2 6e 3d 9e 53 a6 3d
       -0.019552337 0.08115658 0.058306348 0.081214175
000060 f0 71 58 3c 27 51 d5 3c 20 ed 40 bd a5 e1 6b bd
       0.013210759 0.026039673 -0.04710114 -0.05758824
000070 e5 7e 35 3d 00 2c 68 bd 83 38 08 3b f0 bd ed 3d
       0.04431047 -0.056682587 0.0020785637 0.11608493
000080 57 37 94 3c ef a7 67 bd 8b 49 07 bc 35 d5 bf 3d
       0.018092794 -0.05655664 -0.00825728 0.09366838
000090 bc f3 8e 3d 4b 06 1f 3d 67 7b 84 3c 71 7a 72 3d
       0.069800824 0.03882436 0.016172124 0.0591988
0000a0 71 14 06 3d ad d4 33 bd 5a 85 e4 3d 8b d9 0b 3d
       0.03273434 -0.043903995 0.11158247 0.034143012
0000b0 41 87 11 3d 3c bc ba 3d 33 e8 69 bc 4a 27 12 3c
       0.03552938 0.09117934 -0.014276552 0.0089205
0000c0 ef 2e a7 3d 6e 5d 92 3c 89 e4 43 3d 05 df 09 3d
       0.08163249 0.017866816 0.04782537 0.033659954
0000d0 f1 05 15 3d 11 4b ae bc 49 9d ac 3c 02 eb 73 3d
       0.03638262 -0.021276029 0.021071093 0.059550293
0000e0 21 e0 39 3d 11 e5 06 3c 6c b1 f8 3a 05 7d ca 3c
       0.04537976 0.008233325 0.0018973774 0.024717817
0000f0 ae 3d b7 3c b6 dc da bc 46 9f 9f 3c 85 c6 9e 3d
       0.022368278 -0.026716571 0.019485127 0.07752708
000100 a7 61 5d 3b a6 95 94 3d 35 fd a6 ba e7 38 12 3c
       0.003378013 0.07255106 -0.0012740256 0.008924699
000110 85 ea 14 3e d2 7d c6 3d f9 05 ac 3d 24 23 c6 3d
       0.14542587 0.09691967 0.08399577 0.09674671
000120 52 9c f4 3d b5 48 1a bc ab 33 9b bd 9e ee d9 bc
       0.11943878 -0.009416749 -0.07578214 -0.02660304
000130 17 5e 80 3c 32 02 90 3d e8 14 aa 3c a7 2d a2 3d
       0.015669866 0.07031669 0.020761922 0.07918864
000140 5a 03 9b 3d c7 6b 9f bd 56 38 45 3d 52 9d b0 3c
       0.07568999 -0.07784229 0.04814943 0.021559391
000150 a5 07 28 3d 4f 4a 93 3d fc db 0b 3d ef 40 62 bd
       0.041022915 0.071919076 0.03414534 -0.055237707
000160 96 f8 64 bd bc 0b 2e ba 70 74 94 bc 2b f4 1a 3d
       -0.055901133 -0.0006639322 -0.018121928 0.037830513
000170 56 b5 07 3e fa 0d 67 3d b5 91 2a bd cd 5d 7f 3d
       0.13252768 0.056409813 -0.041642863 0.062345315
000180 88 a7 88 bd a7 76 c7 ba d1 aa 8d 3d 07 1b 56 bd
       -0.06672579 -0.0015217856 0.06917346 -0.05227187
000190 b0 ea c9 3c cd 0d e3 3b c4 82 f0 3b 0f 2f 92 3d
       0.02464804 0.0069291354 0.007339807 0.07137882
0001a0 2e 42 0b bc 80 34 7b bd 09 64 40 3c 9c e4 94 3d
       -0.008499665 -0.061329365 0.0117426 0.07270166
0001b0 b6 0a ed 3d 95 76 f0 bb 21 de e2 3d 16 41 21 3d
       0.115743086 -0.007338355 0.11077524 0.03936871
0001c0 6a be a1 3d c3 66 d4 3c 26 04 80 3d 07 c0 38 bb
       0.07897647 0.025927907 0.06250791 -0.002819063
0001d0 06 56 31 bc 1a 16 1b bd 3c 66 ed 3d 84 3b 29 bd
       -0.010823732 -0.037862875 0.11591765 -0.041316524

fc2.weight f4 [60, 120]
000000 a7 89 85 bc 43 69 8d 3d 86 29 3a bd 9a 0d 8e 3d
       -0.01630099 0.06904843 -0.045449756 0.06936188
000010 bb ed 53 3c ca e6 12 3d 5e 04 8a bd 69 d6 59 bd
       0.012935097 0.03586463 -0.06739114 -0.053182993
000020 dd 54 a4 bd f3 cc a8 3d 2d bb 21 bd e4 96 a6 3c
       -0.08023999 0.08242216 -0.039485145 0.020335622
000030 7c ab 18 3d 55 55 65 3d 4c 90 c4 3d 41 59 97 3c
       0.037272915 0.055989582 0.09597835 0.018475177
000040 2c de d5 bc 0e fd 10 bd e2 b1 a8 3d 50 22 16 3d
       -0.026106916 -0.03539758 0.082370535 0.036653817
000050 d5 a1 d7 3d 4e 1a 07 3e e7 8b 13 3d 6a 6e 64 bc
       0.10528914 0.13193628 0.036022093 -0.01394234
000060 f1 fb 87 bd 6f 72 4c bc e8 ae ca 3d a3 70 8d 3d
       -0.06639851 -0.012478455 0.09896642 0.069062494
000070 b8 35 2b 3d a1 45 a3 3c cb b1 05 3e 4c 2e 2b 3b
       0.041799277 0.019930663 0.13056104 0.0026120124
000080 2f 89 a9 3d bc 0a 9b 3d 52 f2 5d 3d 39 a1 a8 3d
       0.08278119 0.07570407 0.054186173 0.08233876
000090 eb 86 79 3d c4 b8 23 bd d7 53 08 3e ee d9 d2 3c
       0.060919683 -0.039971128 0.13313232 0.025738683
0000a0 25 7c c1 3d 8a 85 9d bb 49 62 d1 bd f9 2e 16 3d
       0.09447507 -0.004807179 -0.102238245 0.03666589
0000b0 b2 6d f4 bc 75 27 cd 3d ec 02 90 3c 04 08 dd 3d
       -0.029837463 0.100172915 0.017579518 0.107925445
0000c0 e5 06 09 bd 8d ff 95 bd 89 8a 4f bc e6 df f4 bc
       -0.03345384 -0.07324133 -0.012667307 -0.02989192
0000d0 d7 07 ba ba 5b 3b a7 bc 6c 5a cd 3c 61 21 a8 3d
       -0.001419301 -0.020414045 0.02506753 0.082094915
0000e0 12 ec c4 bd 66 ca ab bb 2e fa 80 3d 0c a1 90 3d
       -0.09615339 -0.0052426336 0.06297718 0.07061967
0000f0 0e ac fc bc e7 bd ab bd 4b 1f 51 bd 41 ca 35 bd
       -0.03084376 -0.083858304 -0.051055234 -0.044382337
000100 f9 44 5c 3d 21 71 81 bc 7c 2c 1f 3e ee 62 02 3e
       0.053776715 -0.015801014 0.15544313 0.12733051
000110 1b a0 e4 bd 70 d8 21 3e 0a 58 49 3b 5d a1 c6 bd
       -0.1116335 0.1580522 0.0030722641 -0.09698746
000120 67 b7 87 3d fa e0 40 3d bc ab 49 3d ea 70 ad 3c
       0.06626778 0.047089554 0.049236044 0.021172006
000130 4c 57 6a bd 9d 0b 38 3e 05 02 9d 3d 13 8f b0 bd
       -0.05721216 0.1797318 0.07666401 -0.08621039
000140 e3 bd c9 bb 45 e7 44 3d 61 65 c2 3d cd c5 01 bc
       -0.0061566695 0.04807212 0.09491993 -0.007920695
000150 fe aa 94 3d d6 1b 8e bd 1d 1a ed 3d f9 96 e9 3d
       0.07259177 -0.06938903 0.11577246 0.11405749
000160 81 13 a2 3b a3 ce 2a 3e af 5e b2 3d b0 36 56 bc
       0.0049461727 0.16680388 0.08709466 -0.013074562
000170 ba 5f 7d 3c 36 38 60 bd 24 2e 43 bb 70 15 c5 bc
       0.0154647175 -0.054741107 -0.002978214 -0.024058074
000180 16 94 60 3d 6f 42 78 bd 73 fe 4e bd 0c dd 04 3e
       0.054828726 -0.06061023 -0.05053563 0.12974948
000190 01 85 56 3d 5b ce 0c bd 4b 66 9e 3c f4 ed 9b 3d
       0.052372936 -0.034376483 0.019335886 0.07613745
0001a0 ea 55 c1 3c 36 8d 91 3d 3b b8 c5 3c 18 c9 9c bd
       0.023600537 0.07107012 0.0241357 -0.07655543
0001b0 0e a4 b3 3d e2 eb d5 3c 4e 0c e8 3d 94 33 01 bd
       0.08771525 0.026113454 0.11330472 -0.03154333
0001c0 8d ea 29 bc 65 13 09 bd fe 5e 72 bd 3a 06 0b bb
       -0.010370863 -0.03346576 -0.059172623 -0.0021213428
0001d0 7d c1 be 3d 31 c0 cc 3d b2 01 59 3d 8d a6 b6 3d
       0.09314249 0.09997595 0.052980132 0.08918486
0001e0 72 c7 50 3c c5 ec be 3d 7b 08 11 3d 13 fd b0 3d
       0.012742864 0.09322504 0.03540848 0.0864202
0001f0 3b 6c 0e 3d 7b 06 0d bd f5 0c 31 bd 2c 55 bb bd
       0.034771185 -0.03443001 -0.043225247 -0.091471046
000200 7a c9 1d bd 8a c0 51 bd 2f 23 cf 3d ee 1e 65 3d
       -0.03852222 -0.05120901 0.101141326 0.0559377
000210 07 0a c0 3c 1a 96 4e 3d aa 0b c4 3d 3b 33 ad 3c
       0.023442281 0.050436117 0.09572537 0.021142593
000220 25 8b f2 bc 1f f4 b6 3d 45 4d 33 3d 4b 67 05 3d
       -0.029607365 0.08933281 0.04377486 0.03256921
000230 8a fb 80 bd 37 e8 9a 3d 23 c2 55 3c 35 66 9b 3c
       -0.06297977 0.07563823 0.013046774 0.018969635
000240 cf 19 a7 3d 3a e7 aa bd 76 c2 56 3d cd 3a 03 3d
       0.081592195 -0.08344884 0.052431546 0.0320385
000250 aa 56 ca 3d 76 4b 59 3c 58 07 3e 3d fe c4 14 bc
       0.09879811 0.01326262 0.046393722 -0.00908017
000260 fe 1d 18 bd ae a7 3b 3d b8 72 d7 bc 12 71 cf bc
       -0.037137978 0.04581421 -0.02629982 -0.02532247
000270 16 03 87 3d 2b 3f 9b 3d 53 86 b8 3c 2a 8f aa bb
       0.065923855 0.07580408 0.022524988 -0.005205055
000280 e1 6a e6 bc a7 10 8f 3a 7a 1f 1e bd de 01 91 bc
       -0.028127136 0.0010914997 -0.038604237 -0.017701086
000290 c7 8c ce bc 8a 1f ce 3c b2 62 57 3c 9d 25 df 3d
       -0.025213612 0.025161523 0.013146089 0.10895846
0002a0 c6 05 aa bc aa 87 7d 3d e7 1f fb 3b 67 82 81 3c
       -0.020754706 0.061896957 0.007663715 0.015809251
0002b0 c1 c6 fd 3c 73 22 7b 3c a3 2a 00 bc 8b af 6c bd
       0.030978562 0.015328038 -0.007822665 -0.0577846
0002c0 eb 0f 24 3c 1d 11 ae 3c f2 5c 55 bc 52 e8 7d bd
       0.010013561 0.021248395 -0.013022648 -0.061989136
0002d0 f7 9d 05 be 6d 83 64 bc 52 bb 03 bc ca ef cc bd
       -0.1304854 -0.01394735 -0.008040266 -0.10006674
0002e0 72 9d 82 bd 99 36 a5 3b f3 29 4d 3d 76 b4 ab bc
       -0.063776866 0.005041909 0.050088834 -0.020960074
0002f0 b1 29 93 3d e2 88 b5 3d 80 64 0b 3d 8c ad 23 3d
       0.071856864 0.08863999 0.03403139 0.03996043
000300 74 a5 19 3d 74 08 7b 3d c8 d0 b9 3d 94 ba aa bc
       0.037511304 0.06128736 0.09073025 -0.02084092
000310 6a c3 1c bd ee 75 62 3d 90 90 8a 3d b0 e0 6f bd
       -0.0382723 0.055288248 0.06765854 -0.058563888
000320 11 46 d9 3d e0 7b 94 3d f6 0e 05 bd a8 4d 85 3a
       0.10609067 0.0725019 -0.03248497 0.0010170238
000330 1b 21 09 bd b8 1e 36 bc 83 03 0f 3e 46 7f 12 bd
       -0.033478837 -0.011115722 0.13966183 -0.03576591
000340 80 73 8c bc be 13 a4 3c eb d1 c7 3d 96 f6 95 bd
       -0.017144918 0.020028945 0.097568356 -0.07322423
000350 31 75 56 bd 84 ee 25 bd b7 29 a4 3b 5b df a9 3d
       -0.052357856 -0.04051067 0.0050098556 0.08294555
000360 31 8d 56 3d 6f 1b 51 bd 0e 9c 0b bd 5b bb 58 3d
       0.052380744 -0.051051553 -0.034084372 0.05291305
000370 6a 15 63 bd 76 6f 90 3d d8 70 2c 3d 94 e2 bf bd
       -0.055440344 0.070525095 0.042099804 -0.09369388
000380 d5 f4 f7 3d 83 0d 27 bd e4 bb b8 3d d0 1d c3 3d
       0.12107245 -0.04078437 0.09020212 0.09527171
000390 53 6f b6 3d 86 4a 98 3d 22 fe af 3d 8f d5 b7 3c
       0.08907952 0.07436089 0.08593394 0.0224407
0003a0 5b b4 a9 bd bf db bf bd ed 06 70 3d 6a 30 1f 3d
       -0.08286353 -0.09368085 0.058600355 0.03886453
0003b0 ed 0e 72 3c 5b 61 6a 3d 87 bb 83 3d 08 ee 1c bd
       0.014774066 0.05722175 0.064322524 -0.03831294
0003c0 a2 dc 13 bd 3a 13 e0 3c d2 42 91 3d f9 29 ca 3d
       -0.036099084 0.027352918 0.07092823 0.09871287
0003d0 97 03 36 bc 41 4e a3 3d 18 b6 55 bc b9 8a c7 bd
       -0.011109254 0.0797391 -0.013043903 -0.09743256
0003e0 66 f7 2a bd d7 41 3b bd df 4c 4c 3d ad a5 74 3d
       -0.041739844 -0.045717087 0.049877997 0.059728313
0003f0 d2 53 2b bd 26 43 17 bd 43 89 89 bd d5 56 5c bd
       -0.041827984 -0.036929272 -0.06715634 -0.053793747

fc2.bias f4 [60]
000000 15 03 f6 bd 60 da 9c bd 02 f4 aa 3c 9a 2d 47 3e
       -0.120123066 -0.07658839 0.020868305 0.1945099
000010 b3 e3 2f 3c 1c b2 08 3e ac e2 94 3d dc b1 5a bd
       0.01073544 0.13349193 0.07269797 -0.053392276
000020 63 4f 2f 3e 12 b3 bf bd bc 9a 06 3e 27 17 e2 bd
       0.17120127 -0.09360327 0.13144964 -0.11039572
000030 f7 42 e1 bd b4 e0 9f bb 79 2c 92 3e 97 55 20 3e
       -0.10999101 -0.0048790816 0.28549555 0.1565765
000040 3b 08 86 3d 1f 78 e9 3d 85 7c bd 3e 79 53 be 3d
       0.065445386 0.113998644 0.37009063 0.09293265
000050 20 d1 e8 bc 20 85 9d 3e ee 78 12 3e 9b ed dc 3b
       -0.028420031 0.3076563 0.14303944 0.006742192
000060 f6 8e de bd 37 0c 32 3d bc 37 6c 3e a0 f6 0d 3e
       -0.108671114 0.04346868 0.23068136 0.13863611
000070 72 34 78 bd c1 7f 02 3c 75 5d ea bc 29 d0 cf 3d
       -0.06059689 0.007965029 -0.028609017 0.10147125
000080 09 39 5d 3e 0a ae 38 3e a0 09 4f 3d 5f 50 88 bd
       0.21603788 0.1803514 0.05054629 -0.066559546
000090 9d 30 93 3d 71 89 60 3e 82 a1 9f bc c1 6c d4 3c
       0.071870066 0.2192743 -0.019486193 0.025930764
0000a0 fe eb 1b bd 1b 3c 37 3d 06 66 62 3c 2b 34 4b 3e
       -0.038066857 0.044735055 0.01381827 0.19844119
0000b0 93 5b 24 3d 4f e8 6e 3d c5 af 07 3e 05 3a 8a bd
       0.040126394 0.058327015 0.13250645 -0.067493476
0000c0 65 c8 8f 3d ae 93 f1 bd 2c 15 d7 3d a7 b9 85 bc
       0.07020644 -0.11795746 0.10502085 -0.016323877
0000d0 75 06 e0 3d 2c fc 3b 3e 1c 89 67 b9 a0 15 9c 3d
       0.109387316 0.18357915 -0.00022080954 0.07621312
0000e0 c5 ec d8 bd 41 7c 01 3e 7c fd 44 3d a3 76 fa bd
       -0.10592035 0.12645055 0.048093304 -0.122296594

fc3.weight f4 [10, 60]
000000 e5 02 6e be 40 db 33 bd 23 51 ab 3e 18 12 c6 3b
       -0.23243292 -0.043910265 0.3346034 0.0060446374
000010 fe 13 d1 3c 18 66 ac 3e a0 a5 35 bd bb 0f 84 3d
       0.025522228 0.3367164 -0.044347405 0.06448313
000020 11 af 0e be 55 bc a7 bd 3c 90 34 be e9 74 a6 3e
       -0.1393397 -0.08190218 -0.17633146 0.3251107
000030 b5 1c 7a bd 61 02 68 bd da 85 85 bd 82 31 1d be
       -0.061062533 -0.056642894 -0.06519671 -0.15350917
000040 f1 44 59 3d 64 5d 04 be d2 27 7f be c8 22 36 3e
       0.053044263 -0.1292625 -0.24917534 0.17786705
000050 7d 5e e4 3d ef e0 4b be 7d d0 45 3d 1f 9d 52 3c
       0.11150835 -0.19910024 0.048294533 0.012854843
000060 22 ce ad 3b 09 1f 5c 3d a3 4b 56 be 70 c8 26 bd
       0.005304114 0.053740535 -0.2092729 -0.040718496
000070 79 69 cc 3e 7b f9 3c bd 66 6d a7 bd e7 f9 17 3e
       0.3992422 -0.04613636 -0.08175163 0.14841424
000080 91 f4 2e 3e 55 4d 81 bc 84 ef ed bc 61 52 23 be
       0.17085482 -0.015783945 -0.029044874 -0.15949394
000090 ba 2b a8 3d 61 24 c2 3d 32 65 f9 bd 3f d4 d6 bd
       0.08211465 0.09479595 -0.121775046 -0.104897015
0000a0 54 4c 1e 3e c1 9b d8 3d 0f 0c 1c 3d 83 fd c2 3c
       0.15458804 0.10576583 0.038097437 0.023802524
0000b0 3c 84 68 3d c1 2a 14 3e 42 63 7e 3e a6 b5 3f 3d
       0.056766734 0.14469434 0.24842551 0.046804093
0000c0 6b 16 60 bd 9a 58 81 3d 29 11 74 bd 08 7f 32 bd
       -0.05470888 0.063157275 -0.059586678 -0.043578178
0000d0 e9 b1 70 3e 66 c8 48 3e 9f 71 bb bd fd 8a 0f 3d
       0.23505367 0.19607696 -0.09152531 0.03504466
0000e0 22 47 08 be 30 20 20 3e 9a 10 43 3c 24 dd 23 bd
       -0.13308385 0.15637279 0.011905814 -0.040005818
0000f0 ff b9 9e 3e 0a a5 10 3e 19 6d 1e be 91 99 d4 be
       0.3100128 0.14125457 -0.15471305 -0.41523412
000100 5d 46 e0 3d 9e 89 5d 3e 22 31 6a be be 47 3f 3d
       0.10950921 0.21634528 -0.22870305 0.046699278
000110 e7 46 06 bc 71 82 42 3c 62 91 d0 be e2 a7 8d 3e
       -0.008195615 0.01187192 -0.40735918 0.27667147
000120 5f a1 b2 3c 7b 7a 62 3c 79 b3 07 3d b8 a3 65 be
       0.021805463 0.013823147 0.033130143 -0.22425735
000130 99 33 c5 3d 8c 39 19 3e 0b ca ad bd e4 79 fc 3d
       0.09628982 0.14963359 -0.08485802 0.12327936
000140 1e bf 2c 3d c1 26 dd bd e3 5b a7 bd ea d6 a6 bd
       0.04217445 -0.10798407 -0.08171823 -0.0814646
000150 0c f7 a5 bd 13 db c3 3d 23 2b 6b be fa 9b 3d 3d
       -0.08103761 0.095632695 -0.22965674 0.04629133
000160 3f 0c 68 bd 18 cb c5 3d ae 1a a4 3d 14 58 0c 3c
       -0.056652304 0.09657878 0.08012901 0.008565921
000170 a2 9e a7 be 29 ff bd bb bd f8 d9 bd 3c 4d 44 3e
       -0.32738215 -0.0057982397 -0.10643146 0.19170088
000180 8c 76 70 3d dc 1c 8e bd 2b 58 63 3e cc 80 f0 3d
       0.058706805 -0.06939098 0.22201602 0.11743316
000190 72 a3 98 bd 91 95 3c be eb 63 97 3c f6 6a ec bd
       -0.0745305 -0.1841643 0.018480262 -0.11543839
0001a0 d6 dc e9 3d 35 b4 3b be 9e 95 12 3e 8d 81 0f bd
       0.11419074 -0.18330462 0.14314887 -0.03503566
0001b0 87 24 03 be c3 c5 56 bc ae bd cf bc 39 07 ac 3d
       -0.12806903 -0.0131086735 -0.025359001 0.08399815
0001c0 ac e9 94 bd f5 55 15 3d 26 0f 7c 3e 14 a2 b5 bd
       -0.07271132 0.03645893 0.24615154 -0.088688046
0001d0 a7 dc 5e 3e 5e 3e 99 3e 6d 82 e9 bd 3c 5a 76 3e
       0.2176386 0.29930395 -0.1140183 0.24057859
0001e0 cc ab 23 be 3e 41 1b be a6 25 08 3e 8b 38 84 3e
       -0.15983504 -0.15161607 0.13295612 0.2582439
0001f0 4f 97 eb bd a3 bd fd bd 0f 0d 2a be 12 4c c8 3c
       -0.11503469 -0.12389686 -0.16606544 0.024450336
000200 b7 74 37 3e 06 58 97 bc 1f 47 37 bd 8d 7c c6 3c
       0.17915617 -0.01847459 -0.04474556 0.024229312
000210 e9 f8 a3 bc 76 59 bd 3c b4 7e 0c 3e 62 a2 68 3e
       -0.02001615 0.023113947 0.13720208 0.22718194
000220 36 02 cf 3c cd f0 03 be 59 fc 83 bd 2a 18 11 3e
       0.025269609 -0.12884827 -0.06444616 0.14169374
000230 36 4c 46 be 4d 32 e7 3d f4 f0 9b 3d 68 d9 52 bd
       -0.1936501 0.11288891 0.076143175 -0.051476866
000240 8e 18 9c 3d 02 5c 6f bc c5 41 1c 3e 2e 1f 95 bd
       0.07621871 -0.014609339 0.15259464 -0.07281338
000250 6a 3a 65 3e 09 95 a6 bd 31 2c a4 3d 12 9b 57 3d
       0.22385564 -0.08133895 0.08016241 0.05263812
000260 38 39 55 3e 35 11 6f 3d 4c 54 74 3e 8d 48 9f bc
       0.20822608 0.05836602 0.23860282 -0.019443775
000270 53 3f 5f 3d 5b 7c b7 bd cc f7 26 3e 55 ea 38 be
       0.05450375 -0.08959266 0.16305465 -0.1805814
000280 c8 b1 cb 3d 5d 47 9f be 03 0e ab 3d c1 7f 5a bd
       0.099460185 -0.31109133 0.08352282 -0.053344492
000290 66 bb 9d 3d 4c a7 68 3d 04 42 06 be 46 97 e1 bd
       0.07701759 0.05680017 -0.1311112 -0.11015181
0002a0 44 5d e3 bd 9c 0b 34 bd 11 1f c9 3b a9 23 da 3c
       -0.111017734 -0.043956384 0.0061377366 0.026628332
0002b0 e3 e7 94 3e 7c 75 26 3e cf c1 b2 bc e8 c7 2a 3e
       0.29083166 0.16255754 -0.02182093 0.1667782
0002c0 61 3a e2 bc 60 a0 05 be dd 91 af 3e 41 e9 70 bd
       -0.027615728 -0.1304946 0.34290972 -0.0588162
0002d0 88 4a 87 3b 65 e1 c0 3d a3 e8 b5 bd 31 88 7a 3e
       0.004128758 0.094179906 -0.088822626 0.24466015
0002e0 87 e1 b6 3d c6 b4 41 be 78 93 6c 3e 7b 71 bf 3d
       0.08929735 -0.18916616 0.2310313 0.093478166
0002f0 91 5c 42 be b2 10 a9 bd e3 2e e2 3d 65 53 7e 3d
       -0.18980624 -0.082551375 0.11044099 0.06209125
000300 e7 d3 e0 bd 98 95 db 3d d5 ce e3 bd 8e ae a6 3d
       -0.10977917 0.10721892 -0.111234345 0.081387624
000310 dc f0 13 bd aa 1f b9 3d ef 67 2e 3e 18 96 04 3d
       -0.036118373 0.090392426 0.17031835 0.032369703
000320 c0 96 9a bd 41 8b 26 3e 8a 9e 8d bd 1e ab c6 bd
       -0.075482845 0.16264059 -0.069150046 -0.09700607
000330 fd 68 3b 3d 74 bb b2 3d 5f 7f a5 3d aa 36 0b 3e
       0.04575442 0.0872716 0.08080935 0.13595071
000340 60 bc c6 bb 54 b9 58 bd a6 0e 17 bd 80 11 4e be
       -0.0060649365 -0.052911118 -0.036879204 -0.20123863
000350 ad ea e4 3d b1 72 60 be eb 0a 14 3e 9a cd b5 3c
       0.11177573 -0.21918751 0.1445729 0.022192765
000360 d6 c2 06 3e e0 91 1f 3e 46 2e 8e bd 9d 9a 94 bd
       0.13160262 0.1558299 -0.0694242 -0.07256053
000370 ab 74 67 3c 7d a7 4b 3e 4b 01 c9 bd 67 af 44 bd
       0.014126937 0.1988811 -0.098147 -0.04801884
000380 73 0f e2 3d 25 e4 81 bd 4f 96 29 be 09 fd bd 3d
       0.11038103 -0.06342343 -0.16561244 0.09276778
000390 b0 9c a7 3d 11 57 11 bd ca a9 ec bd 9f 5b 68 bc
       0.08184183 -0.035483424 -0.11555822 -0.014182
0003a0 71 36 35 be 13 69 08 be a6 77 22 3e 47 2d de 3d
       -0.17696549 -0.13321333 0.15865955 0.1084848
0003b0 c7 1c 74 be c3 52 78 bd 56 f9 72 bd 57 a4 31 be
       -0.23839103 -0.060625803 -0.059319817 -0.17347847
0003c0 d5 dd 81 be 54 c7 2e bc 24 44 e3 3d 1d a9 26 be
       -0.25364557 -0.010667641 0.11096981 -0.16275449
0003d0 33 65 c2 3d c4 89 40 be 79 d6 52 be e8 ba d4 bd
       0.094919585 -0.18802553 -0.20589627 -0.10387212
0003e0 94 cd 8b 3e 1e 9d 17 be 5a ae 92 3e a7 25 26 bd
       0.2730528 -0.14806029 0.28648645 -0.04056325
0003f0 f0 50 04 bd c0 79 18 3c 99 ff b2 3e f4 65 b9 3d
       -0.03230375 0.009306371 0.3496063 0.09052649

fc3.bias f4 [10]
000000 19 3b 44 be 7e 49 0d bf c8 bd 03 3e be 1d 9d 3e
       -0.19163169 -0.55190265 0.12865365 0.30686754
000010 31 bc 14 3f c6 ec a4 bd 69 90 90 bc 99 88 ba be
       0.5809966 -0.080529734 -0.017646985 -0.3643234
000020 7a fe 42 3e f0 7a 83 be
       0.19042388 -0.2567973
