part2-pytorch/checkpoints/vanillacnn.pth (torch, 237819 bytes, 4 tensors)

conv.weight f4 [32, 3, 7, 7]
0.05312617 -0.057883892 0.035571363 0.042937417 0.06905511 0.051610693 0.073939145 0.03265224
0.041398298 -0.06523734 0.06955132 -0.049358673 -0.004174748 -0.00464099 0.03512862 0.024540264
0.06158074 0.08358291 0.05238284 0.059273638 0.034587063 -0.07943416 0.07680166 0.03205508
-0.057805337 0.021266323 -0.05684051 0.015486396 0.06968422 -0.053748656 0.055211775 0.03324717
-0.0629194 -0.030961951 0.052250538 -0.017474841 -0.064559616 -0.0094896555 -0.060720433 0.017981414
-0.036832564 -0.02084112 -0.056696918 0.02211095 -0.04268757 -0.030264655 -0.042578783 0.073503084
-0.076404184 -0.07942608 -0.059879676 -0.012621945 0.02157749 -0.061953403 0.051192038 0.019624071
-0.036208432 0.051974446 -0.052799765 0.022303129 0.03737922 -0.020557407 -0.0066544744 0.0031287132
-0.052997183 0.054042317 0.024228383 -0.060873404 0.01438999 0.0046740994 -0.06742357 0.0414278
-0.030646624 0.06729958 0.033661027 0.008835279 -0.07991235 0.06450218 -0.06981556 -0.032642342
0.075513214 0.07352443 -0.014055173 -0.05505166 0.044686638 -0.03014934 -0.06863966 0.023501283
0.056025047 0.06869153 -0.062624075 0.075033486 0.0303165 -0.03066596 0.047385134 0.07755429
0.03823239 0.05608529 -0.020306958 -0.05712443 0.04761432 0.025438283 0.06248769 -0.004416308
0.016143302 -0.010615835 0.066184334 -0.009485377 -0.075776994 -0.07175035 0.06536359 -0.0588115
0.023422945 -0.050052237 -0.03624314 -0.025737643 0.07405649 0.058299012 -0.06884762 0.06365001
0.07249441 0.0043041473 0.061333258 -0.0018432809 0.033169 -0.05851234 0.036321983 0.03131479
-0.0455727 0.061953086 -0.044787966 0.045341447 0.073587246 -0.06741147 0.049830575 -0.07571125
0.013957063 0.014582564 -0.019034067 0.026246073 -0.028092142 -0.008387421 0.068211205 -0.06501544
-0.024899364 0.0010165705 -0.050241537 0.045567546 0.051815975 -0.08741145 -0.07615475 -0.08025432
-0.068621226 0.03809742 0.037654653 0.07579482 0.010209601 0.079808965 -0.038405806 0.033404473
-0.03181986 -0.044415146 0.03718142 -0.03512357 -0.016737815 -0.07288021 0.077416696 -0.06561157
0.0035101743 0.012907009 -0.029602341 0.069557704 -0.047985822 -0.07992855 0.07844642 -0.078339845
-0.032390792 0.042538375 -0.027364777 0.009222373 0.05050872 -0.0809737 -0.0196176 0.05170877
-0.04350294 -0.013375725 0.05175069 -0.016855732 -0.030803174 0.06680632 0.057433035 -0.078831084
-0.026971431 -0.059586454 0.026629131 -0.075753935 -0.0791388 0.026500382 0.07377549 0.04914924
0.009707814 0.046293374 -0.013162859 0.032506555 0.0346873 0.077825435 -0.07556836 0.06899671
0.0188994 -0.07404626 0.053972173 0.07356286 0.020548148 0.023754284 0.06678476 0.0811435
-0.019197293 -0.01880164 0.046979573 -0.0844757 -0.022983769 -0.027899468 0.07914604 0.015734965
-0.066183396 0.02692013 0.03420306 -0.0013663954 -0.069906816 -0.04845938 -0.03405749 0.065053076
0.015898716 0.06557569 -0.0187782 0.011384055 -0.021230474 0.012399229 -0.08007975 -0.05576095
0.06278771 0.011417949 -0.06148184 0.07503066 0.034598015 -0.04260162 0.05694853 0.02801708
0.061675806 0.034030538 -0.0031769304 -0.04432084 0.082781434 -0.059857763 0.05418608 0.0773477
00000000: d49a 593d a917 6dbd 47b3 113d 25df 2f3d
00000010: c46c 8d3d bc65 533d 686d 973d 5bbe 053d
00000020: 4391 293d 289b 85bd ec70 8e3d 522c 4abd
00000030: 53cc 88bb 7213 98bb 07e3 0f3d aa08 c93c
00000040: 163c 7c3d 842d ab3d 648f 563d eac8 723d
00000050: 2aab 0d3d 60ae a2bd 304a 9d3d 304c 033d
00000060: 4ac5 6cbd b636 ae3c 98d1 68bd a7ba 7d3c
00000070: 9ab6 8e3d 8d27 5cbd be25 623d 2f2e 083d
00000080: e3db 80bd eba3 fdbc a904 563d 6627 8fbc
00000090: d537 84bd 807a 1bbc fdb5 78bd c24d 933c
000000a0: bedd 16bd ffba aabc 073b 68bd 0622 b53c
000000b0: 29d9 2ebd 95ed f7bc 1767 2ebd c988 963d
000000c0: cc79 9cbd 24aa a2bd 6444 75bd 46cc 4ebc
000000d0: 47c3 b03c dac2 7dbd beae 513d a9c2 a03c
000000e0: 4b4f 14bd 28e3 543d 9144 58bd 0db5 b63c
000000f0: f41a 193d 0268 a8bc c70d dabb 190b 4d3b
00000100: 9313 59bd 7a5b 5d3d 9a7a c63c 6456 79bd
00000110: fec3 6b3c 3029 993b 5e15 8abd 32b0 293d
00000120: a10e fbbc 5dd4 893d 25e0 093d d9c1 103c
00000130: 16a9 a3bd b819 843d 76fb 8ebd fab3 05bd
00000140: aca6 9a3d fa93 963d ab47 66bc d97d 61bd
00000150: 5609 373d c0fb f6bc f392 8cbd c385 c03c
00000160: 857a 653d 25ae 8c3d 0d41 80bd 28ab 993d
00000170: 4f5a f83c 2e37 fbbc ea16 423d c9d4 9e3d
00000180: 9199 1c3d b0b9 653d c75a a6bc 4efb 69bd
00000190: 3c07 433d f263 d03c 18f3 7f3d adb6 90bb
000001a0: f53e 843c 0aee 2dbc a78b 873d 8e68 1bbc
000001b0: f830 9bbd d9f1 92bd 59dd 853d 54e4 70bd
000001c0: 7ae1 bf3c 9303 4dbd b073 14bd c0d7 d2bc
000001d0: eeaa 973d f2ca 6e3d fbff 8cbd f05a 823d
000001e0: f377 943d ce09 8d3b 9538 7b3d 3e9a f1ba
000001f0: 38dc 073d a3aa 6fbd 5cc6 143d f043 003d
00000200: 71aa 3abd 85c2 7d3d 9673 37bd f4b7 393d
00000210: e9b4 963d 060f 8abd 251b 4c3d 800e 9bbd
00000220: 2aac 643c b5eb 6e3c 55ed 9bbc 0102 d73c
00000230: 7e21 e6bc 656b 09bc 51b2 8b3d d126 85bd
00000240: c0f9 cbbc 723e 853a 12ca 4dbd 09a5 3a3d
00000250: fd3c 543d c604 b3bd 06f7 9bbd 605c a4bd
00000260: 4989 8cbd 0a0c 1c3d c43b 1a3d 513a 9b3d
00000270: 2c46 273c e272 a33d 684f 1dbd 21d3 083d
00000280: 8b55 02bd a8ec 35bd 8b4b 183d bcdd 0fbd
00000290: be1d 89bc 3842 95bd a58c 9e3d 5c5f 86bd
000002a0: f40a 663b eb77 533c 9c80 f2bc 4574 8e3d
000002b0: c88c 44bd 94b1 a3bd 84a8 a03d a470 a0bd
000002c0: 35ac 04bd b83c 2e3d 192c e0bc 7019 173c
000002d0: 3be2 4e3d 8ad5 a5bd 17b5 a0bc 93cc 533d
000002e0: 2430 32bd db25 5bbc 88f8 533d 0815 8abc
000002f0: f056 fcbc c0d1 883d e73e 6b3d 3172 a1bd
00000300: 31f3 dcbc ed10 74bd 5625 da3c e124 9bbd
00000310: 8613 a2bd 5417 d93c 9b17 973d b750 493d
00000320: 860d 1f3c 1f9e 3d3d 08a9 57bc 9825 053d
00000330: 4514 0e3d f162 9f3d 96c3 9abd 264e 8d3d
00000340: ead2 9a3c 91a5 97bd ed11 5d3d 20a8 963d
00000350: 9754 a83c 5898 c23c 73c6 883d 902e a63d
00000360: a443 9dbc e605 9abc a76d 403d 9901 adbd
00000370: 7548 bcbc 6d8d e4bc 5217 a23d 9de6 803c
00000380: 298b 87bd 9b87 dc3c 8218 0c3d 9f18 b3ba
00000390: 4e2b 8fbd 587d 46bd de7f 0bbd 8c3a 853d
000003a0: 063e 823c 8c4c 863d bdd4 99bc 3084 3a3c
000003b0: 88eb adbc 2326 4b3c da00 a4bd 9865 64bd
000003c0: d896 803d 5912 3b3c 62d4 7bbd ada9 993d
000003d0: a6b6 0d3d 097f 2ebd dd42 693d 1384 e53c
000003e0: c59f 7c3d 9b63 0b3d 0c34 50bb c589 35bd
000003f0: 5089 a93d 6a2d 75bd 39f2 5d3d 7968 9e3d

conv.bias f4 [32]
0.078304954 -0.04258418 0.057510745 0.04552335 -0.047362473 0.045412306 -0.04533194 -0.066034906
0.10537891 -0.013615801 -0.046172675 -0.05955182 -0.05476912 0.0021259189 0.02301417 -0.017615866
0.08154022 0.05132924 0.038025726 0.050273836 0.035782218 0.056999993 -0.07639781 0.018706292
0.0040840623 0.044258475 0.007155017 0.052756675 -0.07097906 -0.089740135 -0.0055923234 -0.0009491712
00000000: 595e a03d c06c 2ebd 6390 6b3d b176 3a3d
00000010: 27ff 41bd 4102 3a3d fcad 39bd 4f3d 87bd
00000020: e6d0 d73d cf14 5fbc 8f1f 3dbd 9cec 73bd
00000030: 9655 60bd 0053 0b3b 3688 bc3c 264f 90bc
00000040: 8ffe a63d 9c3e 523d ddc0 1b3d f0eb 4d3d
00000050: 6090 123d d378 693d 7476 9cbd f03d 993c
00000060: 99d3 853b 6048 353d a274 ea3b 6217 583d
00000070: 785d 91bd adc9 b7bd cf3f b7bb cdd1 78ba

fc.weight f4 [10, 5408]
-0.014839219 -0.0027549835 0.008715451 -0.0016550698 0.005017676 0.007652628 -0.014785543 0.0038068467
-0.014142642 0.0014864578 -0.014527074 0.0036972435 -0.013769818 0.006652443 -0.0034484419 -0.007141074
0.00028832385 -0.0024837789 -0.005158291 0.01100093 -0.007442221 -0.01177057 0.008603636 -0.016836617
0.00880279 0.010398302 0.007446085 -0.012724308 0.0038830095 -0.0031987433 -0.008390007 0.011511743
-0.014766358 0.0027169215 -0.011655565 -0.01259753 -0.0006522804 -9.719077e-05 -0.013561061 0.006485924
-0.0062174965 0.011348306 0.004320163 -0.0072823777 -0.0021803926 -0.006022692 0.006448072 -0.013223099
-0.010300424 0.0121454 0.00059994514 0.0030868768 -0.005550217 -0.007855371 0.008266299 -0.0041153054
0.0025340193 0.011848413 0.006312163 -0.008864836 0.0015328012 0.009026215 -0.010905468 0.0073962784
0.007211933 -0.010395723 0.009956391 0.009312208 0.004200347 -0.0006107889 -0.0064681107 -0.0018101495
0.013190393 0.013560016 0.00865718 0.00037615543 0.007425334 -0.0090309195 0.0085324645 0.0040455335
0.009262841 0.0018020221 -0.0049717105 -0.006584919 -0.009985797 0.0010181788 0.0021442997 0.0021575624
0.013147608 0.009975726 0.009177287 0.009630124 -0.006309628 0.015278051 -0.0090117045 -0.003437528
-0.003406382 0.008553264 0.0034957896 0.0005504463 -0.0030087521 0.012281028 -0.002290494 -0.009864219
0.004759232 0.0048596477 0.008925457 0.014027489 -0.00032911304 0.007059159 -0.010760571 -0.0039109155
-0.006081292 -0.007851952 0.0078503415 0.0031782712 -0.008451777 -0.011989859 -0.0077623413 -0.00024665313
0.010625363 -7.57739e-05 -0.01242205 0.0053977766 0.010886648 -0.00082931557 0.0027505516 -0.003008143
0.0012283041 -0.00022839471 -0.009711528 0.00955352 -0.01252946 0.009461291 -0.012045486 -0.007927437
0.0043093595 -0.012973483 0.0057320246 0.0074426443 -0.0073076864 -0.011049448 0.010792435 0.005003698
-0.012241212 -0.0025612742 -0.013858616 -0.008475073 -0.014323417 0.0110691665 0.0066854106 -0.014027332
0.0032940104 0.009258528 0.00042381143 0.0032169225 0.0014119754 0.0042770803 -0.0037862982 0.0028224653
-0.008024682 -0.010727866 0.0068194 -0.0075035105 0.0016606038 0.0049702884 0.00035148472 -0.008603874
-0.0028206247 -0.01215931 0.0014752472 -0.0111755915 -0.0016397581 -0.008703878 0.0003590191 0.015010442
-0.009970112 5.3498603e-05 0.008554153 0.0023343812 -0.001245338 0.010372574 -0.008385191 -0.004251986
0.004064487 -0.0007167409 -0.0023792412 0.0018359057 0.006047912 -0.0016021155 -0.010336471 0.010793954
0.014334725 0.01107657 0.012819331 -0.0053455005 0.0012472445 -0.010333881 -0.0014441214 0.004850406
-0.006729017 -0.00088221923 -0.00403115 -0.008042722 -0.0023998052 -0.0045169033 -0.0047951695 -0.009988037
0.0026294026 -0.011159967 0.014308079 -0.0072176997 0.0118991705 -0.01007782 -0.0015238929 0.009326405
-0.005960209 -0.008113983 0.009497359 -0.0049195467 0.008002152 -0.0055631124 0.00493186 -0.0018661913
0.004578183 -0.00185621 0.01608844 0.010714168 0.015230501 0.0023623833 -0.010530377 0.003499171
-0.009406287 0.0010279814 -0.0037508 0.0065811407 0.009768344 0.0015495248 0.008682183 0.014414534
-0.004131433 -0.0021546106 0.0051018475 0.015196378 0.0016024278 0.009366059 -0.00959812 -0.0075007793
0.012967062 -0.0012999712 0.0020212862 -0.0056015383 0.005395227 0.004538539 -0.0028462554 -0.0021157877
00000000: 3220 73bc f48c 34bb 40cb 0e3c edee d8ba
00000010: 516b a43b e5c2 fa3b 103f 72bc 4a7c 793b
00000020: 8ab6 67bc 3fd5 c23a f702 6ebc 744d 723b
00000030: cd9a 61bc bdfc d93b 41ff 61bb acff e9bb
00000040: 2c2a 9739 e5c6 22bb e206 a9bb 3f3d 343c
00000050: e0dd f3bb 59d9 40bc 44f6 0c3c f2ec 89bc
00000060: 9439 103c a45d 2a3c 4afe f33b 9e79 50bc
00000070: 177a 7e3b 02a2 51bb 3d76 09bc c09b 3c3c
00000080: 98ee 71bc 610e 323b fcf6 3ebc df65 4ebc
00000090: ccfd 2aba e6d2 cbb8 362f 5ebc e087 d43b
000000a0: 24bc cbbb 3fee 393c 2790 8d3b 03a1 eebb
000000b0: ebe4 0ebb 015a c5bb 594a d33b b2a5 58bc
000000c0: 1cc3 28bc 80fd 463c a345 1d3a 334d 4a3b
000000d0: 98de b5bb d0b3 00bc 5f6f 073c afd9 86bb
000000e0: ca11 263b d91f 423c 43d6 ce3b d13d 11bc
000000f0: 46e8 c83a b1e2 133c d9ac 32bc 7b5c f23b
00000100: 1452 ec3b d352 2abc 2120 233c 3b92 183c
00000110: 10a3 893b 591d 20ba 72f2 d3bb 8a42 edba
00000120: 851c 583c d42a 5e3c d8d6 0d3c ba36 c539
00000130: 3750 f33b 6cf6 13bc c0cb 0b3c 6590 843b
00000140: 2cc3 173c d431 ec3a bbe9 a2bb 4ec6 d7bb
00000150: 789b 23bc 6974 853a 6187 0c3b e465 0d3b
00000160: 1169 573c 3a71 233c 555c 163c abc7 1d3c
00000170: ffc0 cebb ca50 7a3c d4a5 13bc 2648 61bb
00000180: 9b3d 5fbb fd22 0c3c 9e19 653b d34b 103a
00000190: 7c2e 45bb 5d36 493c 1d1c 16bb 899d 21bc
000001a0: 55f3 9b3b ae3d 9f3b 143c 123c 8ed3 653c
000001b0: ce8c acb9 8550 e73b 1b4d 30bc 2327 80bb
000001c0: 9345 c7bb 79a5 00bc b89e 003c 8b4a 503b
000001d0: 5279 0abc 1d71 44bc 3d5b febb 3951 81b9
000001e0: 0116 2e3c cee8 9eb8 db85 4bbc d5df b03b
000001f0: e95d 323c 6d66 59ba 9942 343b 4424 45bb
00000200: 0cff a03a 3d7d 6fb9 1a1d 1fbc 5e86 1c3c
00000210: 5d48 4dbc 8803 1b3c 6e5a 45bc 15e2 01bc
00000220: 8735 8d3b bb8e 54bc b5d3 bb3b 6de1 f33b
00000230: 5175 efbb be08 35bc c1d2 303c 10f6 a33b
00000240: 5d8f 48bc 0ddb 27bb 400f 63bc 08db 0abc
00000250: c4ac 6abc 735b 353c 4a11 db3b e5d2 65bc
00000260: 53e0 573b 15b1 173c 0233 de39 01d3 523b
00000270: 0812 b93a c026 8c3b 8b23 78bb 1cf9 383b
00000280: f579 03bc eec3 2fbc 4675 df3b 02e0 f5bb
00000290: 9ea8 d93a cddd a23b 7b47 b839 43f7 0cbc
000002a0: 3bda 38bb d837 47bc 155d c13a d419 37bc
000002b0: 27ed d6ba b69a 0ebc ba3a bc39 5bee 753c
000002c0: ae59 23bc b063 6038 b826 0c3c 6bfc 183b
000002d0: 9c3a a3ba bbf1 293c 0a62 09bc 3e54 8bbb
000002e0: 632f 853b abe3 3bba 0bed 1bbb c6a2 f03a
000002f0: 902d c63b 13fe d1ba 4d5a 29bc 20d9 303c
00000300: 32dc 6a3c 807a 353c 2c08 523c 4f29 afbb
00000310: 957a a33a 704f 29bc ac48 bdba 28f0 9e3b
00000320: 167f dcbb bb44 67ba bd17 84bb 9fc5 03bc
00000330: 0d46 1dbb 8802 94bb cc20 9dbb dda4 23bc
00000340: 0e52 2c3b 4bd8 36bc 6f6c 6a3c 7482 ecbb
00000350: bdf4 423c 711d 25bc 5cbd c7ba c7cd 183c
00000360: db4d c3bb 83f0 04bc d09a 1b3c 2634 a1bb
00000370: 751b 033c c54a b6bb 719b a13b fd9a f4ba
00000380: 9504 963b 124c f3ba e7cb 833c 7a8a 2f3c
00000390: 5a89 793c 37d2 1a3b 9a87 2cbc 5952 653b
000003a0: d41c 1abc 55bd 863a fbcf 75bb 9ca6 d73b
000003b0: 680b 203c 6d19 cb3a b73f 0e3c f02a 6c3c
000003c0: f960 87bb 5e34 0dbb 662d a73b 3bfa 783c
000003d0: 8e08 d23a 1974 193c 6f41 1dbc 19c9 f5bb
000003e0: cd73 543c cc63 aaba 8e77 043b 1c8d b7bb
000003f0: 72ca b03b 06b8 943b 3e88 3abb 07a9 0abb

fc.bias f4 [10]
0.0025040687 -0.0089375265 0.015358495 0.0044131186 0.019786287 0.00744661 0.011558799 0.0053555947
0.01354465 -0.022848353
00000000: 4d1b 243b b46e 12bc 32a2 7b3c ec9b 903b
00000010: da16 a23c b102 f43b 1e61 3d3c fc7d af3b
00000020: 61ea 5d3c 782c bbbc
